DGN/Golden_DGN/dgn_ep1_dim100.pt (torch, 444187 bytes, 38 tensors)

weight f4 [119, 100]
0	0x2c9ac262	4.398524e-12
1	0xad0591cd	-7.592549e-12
2	0x2a2c4c63	1.5303171e-13
3	0xac1d833c	-2.2383892e-12
4	0x359a1915	1.1481194e-06
5	0x344e7d78	1.923089e-07
6	0x297d6599	5.6265407e-14
7	0xac36fcaa	-2.6004012e-12
8	0xb62458c4	-2.4489573e-06
9	0x2980987c	5.710794e-14
10	0xa92c6f17	-3.8288027e-14
11	0x29c1d560	8.6079364e-14
12	0x3606d602	2.0092125e-06
13	0x29ed4a01	1.0537752e-13
14	0x2a15bf0c	1.3300141e-13
15	0xa964e4fc	-5.0824782e-14
16	0x2c19d1f2	2.185915e-12
17	0xac54a8ef	-3.022079e-12
18	0x287f0328	1.4156028e-14
19	0x2a8de0d7	2.5202645e-13
20	0xac9d79e2	-4.47574e-12
21	0xb5d5924e	-1.5912317e-06
22	0xb617dc06	-2.2628824e-06
23	0xac0131c6	-1.8359632e-12
24	0x2a059028	1.1862787e-13
25	0xa932d720	-3.971053e-14
26	0x344b5f10	1.8940432e-07
27	0x291f8e70	3.5428637e-14
28	0x2b629ff7	8.0513325e-13
29	0xab150bc5	-5.295177e-13
30	0xabe7d66b	-1.647305e-12
31	0x2861d2a6	1.2535686e-14
32	0xaa028788	-1.1593341e-13
33	0xaa33346e	-1.5916584e-13
34	0x2ca37085	4.645231e-12
35	0x29ae74e2	7.747428e-14
36	0x361b1079	2.3106388e-06
37	0xb568f079	-8.677667e-07
38	0xa8107e80	-8.021036e-15
39	0xacfecc72	-7.241812e-12
40	0x36966ea8	4.4832304e-06
41	0xb58c8704	-1.0470108e-06
42	0xb6935877	-4.39124e-06
43	0xb62f6422	-2.6135317e-06
44	0x3670cb71	3.5881205e-06
45	0xb636b3d6	-2.7224792e-06
46	0xb636e54e	-2.7253586e-06
47	0x36438985	2.9137311e-06
48	0x2a2f5674	1.5573117e-13
49	0xac53931b	-3.0066563e-12
50	0x269ba048	1.079873e-15
51	0xa9e09f26	-9.975206e-14
52	0x350ba21b	5.201743e-07
53	0x35206dfa	5.976468e-07
54	0xb6202a9c	-2.386666e-06
55	0x2ab2d0f0	3.176413e-13
56	0x34e61c30	4.2861348e-07
57	0xb524a7e6	-6.1339085e-07
58	0xac66704e	-3.2747307e-12
59	0x36330444	2.6675561e-06
60	0x28d62740	2.3775795e-14
61	0xaa31c352	-1.5788523e-13
62	0x2c1f5f44	2.2648142e-12
63	0x350d59b4	5.265713e-07
64	0xa5824700	-2.2599517e-16
65	0xb6350b18	-2.697756e-06
66	0xa7e8a450	-6.4571083e-15
67	0xb6267ad2	-2.4807418e-06
68	0x2aa1a0d4	2.8710942e-13
69	0x2d38121d	1.0463211e-11
70	0xb56d4239	-8.8385747e-07
71	0x35db7e44	1.635352e-06
72	0xab0859dc	-4.844161e-13
73	0xb4bc6492	-3.5090903e-07
74	0xb629b38d	-2.5287475e-06
75	0xaab77e41	-3.2594936e-13
76	0xa6950e60	-1.0342848e-15
77	0xa988c190	-6.073191e-14
78	0x2a2bc164	1.5254947e-13
79	0xac50ea8b	-2.9688775e-12
80	0x2a4c9374	1.8169998e-13
81	0xaac3885f	-3.4733585e-13
82	0x2d0ef42c	8.1259825e-12
83	0xabd88b04	-1.5386308e-12
84	0x2a81e394	2.3072917e-13
85	0xa8be90ae	-2.1156982e-14
86	0xaa011131	-1.1463466e-13
87	0x2891fb43	1.6207201e-14
88	0xab564bdb	-7.6133343e-13
89	0x29236a58	3.628551e-14
90	0x2c53b58e	3.0085687e-12
91	0x355670e4	7.988549e-07
92	0x2d7193a2	1.3732045e-11
93	0xaccfbf7c	-5.904553e-12
94	0x2985397d	5.916359e-14
95	0x2cd27bc0	5.982298e-12
96	0xa965ff9c	-5.106992e-14
97	0x2c3b09ea	2.6579802e-12
98	0xad1a44d0	-8.769166e-12
99	0x35f278db	1.8065579e-06
100	0xa7fef462	-7.0764122e-15
101	0x299a5360	6.853437e-14
102	0xaaa26209	-2.8845006e-13
103	0x28fc7cfe	2.8031827e-14
104	0x294fee0a	4.61697e-14
105	0xaa4cc21d	-1.8186186e-13
106	0xa9ff79b6	-1.1345388e-13
107	0xaa06b330	-1.1963759e-13
108	0x2a079799	1.2043005e-13
109	0x28bc7f20	2.0927325e-14
110	0x2910c78f	3.2147513e-14
111	0xa8bdc67c	-2.1069294e-14
112	0xaa26c170	-1.4810874e-13
113	0xaa84c0bf	-2.3581655e-13
114	0xaa854100	-2.367065e-13
115	0x29e50615	1.0170698e-13
116	0xaa9413ba	-2.630377e-13
117	0x2ab963d2	3.2931866e-13
118	0x29f73783	1.0978633e-13
119	0xaa219348	-1.4350771e-13
120	0xa92d19be	-3.8436044e-14
121	0x2a5b3c99	1.9472131e-13
122	0x2a869b29	2.3910846e-13
123	0xaa594a1d	-1.9299185e-13
124	0xaa0ab28a	-1.2318805e-13
125	0x27b62ebe	5.0565826e-15
126	0xa9d4c650	-9.449093e-14
127	0x2a5791d2	1.9146428e-13
128	0x288b7170	1.5481296e-14
129	0x2a55d50c	1.8992116e-13
130	0x2902e273	2.9062212e-14
131	0x29f528b8	1.0887249e-13
132	0x2a1763fe	1.3446186e-13
133	0x278e684b	3.952599e-15
134	0xa9697e52	-5.184596e-14
135	0x293a2581	4.1332826e-14
136	0xa8922bb4	-1.622821e-14
137	0xaa0f12d0	-1.2707478e-13
138	0x2a109896	1.2842708e-13
139	0xa9e3a1be	-1.0108883e-13
140	0xa93da01f	-4.2105313e-14
141	0xaab73542	-3.2544285e-13
142	0x29b4334d	8.002505e-14
143	0x293e0908	4.2196308e-14
144	0x28b2bd3d	1.9844039e-14
145	0xa7d2d590	-5.8518254e-15
146	0x2a971ddc	2.6843707e-13
147	0x2a9f8a8c	2.834021e-13
148	0xa84f40b0	-1.1504835e-14
149	0xa8ed0e96	-2.6318611e-14
150	0xaa05a63e	-1.187045e-13
151	0xa9fa56b6	-1.1117272e-13
152	0x2a65fafc	2.0426364e-13
153	0xa7388e0d	-2.5612135e-15
154	0xa92e6578	-3.872377e-14
155	0xa8303a3a	-9.7825885e-15
156	0x29a8ac9f	7.490644e-14
157	0x2a194a46	1.3614899e-13
158	0x2a8e49b1	2.52754e-13
159	0x29f0ccb4	1.06936514e-13
160	0x2a05500e	1.1840548e-13
161	0xaa10f7e6	-1.2875776e-13
162	0x288cb4a0	1.5621456e-14
163	0xaa362db2	-1.6180701e-13
164	0x299128de	6.446383e-14
165	0x29abb574	7.6254026e-14
166	0x2a22329b	1.4406048e-13
167	0x2a703993	2.1336257e-13
168	0xaa0c4d4e	-1.2461318e-13
169	0x2a7c9f22	2.2437306e-13
170	0x288fc75c	1.5962648e-14
171	0xa9c8a5b5	-8.91053e-14
172	0xaa8a1a6b	-2.4532056e-13
173	0x2a9eebbd	2.8230014e-13
174	0xa6e35fdb	-1.5777271e-15
175	0xa900129a	-2.8437844e-14
176	0x2a2abee7	1.5165266e-13
177	0xaa4ad6df	-1.8015752e-13
178	0xa9a30db8	-7.241034e-14
179	0xa7798e01	-3.4632672e-15
180	0xaa00374b	-1.1387867e-13
181	0x2a9af865	2.7528254e-13
182	0xa9542abb	-4.711052e-14
183	0xaa898b01	-2.4432542e-13
184	0x29947d6a	6.594276e-14
185	0xaa18e2a2	-1.3578941e-13
186	0x27d5c503	5.9332977e-15
187	0x2a733392	2.1600628e-13
188	0xaa5ca566	-1.959731e-13
189	0x2758d7dc	3.009304e-15
190	0xa78721cc	-3.750667e-15
191	0x2a8ed1d3	2.5369862e-13
192	0xaa83e207	-2.3427113e-13
193	0x294fd62e	4.6149004e-14
194	0xa90b526a	-3.0935683e-14
195	0xa9f0fab7	-1.0701633e-13
196	0xaa5f0287	-1.9807256e-13
197	0x2830583a	9.789094e-15
198	0x2a33010e	1.589876e-13
199	0x2a99595c	2.7240265e-13
200	0xbe393f6e	-0.18090603
201	0xa990d5ed	-6.431995e-14
202	0xbcc65299	-0.024209308
203	0xa8205da0	-8.902086e-15
204	0xbd646ba9	-0.055766735
205	0x2df656b4	2.8005466e-11
206	0xa9d95f49	-9.653265e-14
207	0xb9f00600	-0.00045780838
208	0xbe04a206	-0.12952432
209	0x2fb186a8	3.2291791e-10
210	0x3b8dc33e	0.004326253
211	0x3b3dcfb7	0.002896292
212	0x3b533de6	0.003223294
213	0xbdd19634	-0.10233727
214	0xbd9dfcd9	-0.077142425
215	0xbcb242b0	-0.021760315
216	0xbdc7953f	-0.09745263
217	0x3a9715c6	0.0011526875
218	0xbe58dedf	-0.21178769
219	0xbdca53af	-0.09879243
220	0xbdd9a46d	-0.10627065
221	0xbdd1f5c9	-0.10251958
222	0x3b0ef182	0.002181143
223	0xbdc06e99	-0.09396095
224	0xacb1a106	-5.0485198e-12
225	0xb02b6f05	-6.2367206e-10
226	0x28e78b47	2.5706554e-14
227	0xbc31899c	-0.010836031
228	0xbd1b384a	-0.03789548
229	0x3e2e04a6	0.1699396
230	0xba686f13	-0.0008866649
231	0xbd589bee	-0.05288308
232	0xaa8ff340	-2.5570691e-13
233	0xbcc0d1ae	-0.023537483
234	0xbe31d1e2	-0.1736522
235	0x3b6a8e09	0.0035790226
236	0x3ad9a2ea	0.0016604338
237	0x3aa35b46	0.0012463115
238	0xbdb8791d	-0.090074755
239	0xbdf19995	-0.117968716
240	0xbdfafcde	-0.12255262
241	0xb954b408	-0.00020284962
242	0xbe41895d	-0.18900056
243	0xbb469a50	-0.003030438
244	0x2e7018b2	5.4591616e-11
245	0xbdc20509	-0.09473617
246	0xbdd5f1e8	-0.104465306
247	0xbe0917a4	-0.13387924
248	0x3bb21460	0.005434558
249	0xbdd897fa	-0.10575862
250	0xbdf47345	-0.119360484
251	0xbd8c0743	-0.068373226
252	0x3b0bc2f8	0.0021325927
253	0xba9cf1d4	-0.0011973926
254	0xbdcee4f6	-0.101022646
255	0xbe48dca2	-0.19615415

weight f4 [4, 100]
0	0xbe4e76ef	-0.20162557
1	0xbe043b30	-0.12913203
2	0xbe2fd54a	-0.17171207
3	0x3d679c3e	0.05654549
4	0xbdbf95a8	-0.093547165
5	0xbd583e6f	-0.052793916
6	0xbd737ce8	-0.05944529
7	0xbe63405a	-0.22192517
8	0xbea6e0e8	-0.32593465
9	0xbdbde0b5	-0.09271375
10	0xbdfd6f85	-0.12374786
11	0xbe28d7e4	-0.16488606
12	0xbe6d7d8e	-0.23192427
13	0xbe87c9de	-0.265212
14	0xbbdd5d18	-0.0067554824
15	0xbe4ed10e	-0.20196936
16	0x3d947f32	0.07250823
17	0xbe88fa2d	-0.2675337
18	0x3d0a134d	0.033709813
19	0xbbe4ec20	-0.006986156
20	0xbdd86571	-0.105662234
21	0xbe8b29df	-0.27180383
22	0xbe8d3cda	-0.2758549
23	0xbe812933	-0.25226745
24	0xbeb0cf9c	-0.34533393
25	0xbe66b605	-0.22530372
26	0xbe313e92	-0.17309025
27	0xbbac4fd8	-0.0052585416
28	0xbe859019	-0.260865
29	0xbe1bd434	-0.15217668
30	0x3d2cd460	0.042194724
31	0x3d209b2a	0.039210476
32	0xbe8d6303	-0.27614602
33	0xbe52d1fc	-0.20587915
34	0xbe5e003a	-0.21679774
35	0xbe5bfde5	-0.21483572
36	0x3e60021b	0.21875803
37	0x3dae6312	0.0851499
38	0xbe47628c	-0.19471186
39	0x3dcd34d3	0.10019841
40	0x3c62c410	0.01384069
41	0xbe406827	-0.18789731
42	0xbd770721	-0.060309533
43	0xbe8df90e	-0.27729076
44	0xbd9cfa2d	-0.07664905
45	0x3bbfe9b6	0.005856718
46	0xbd4fbadd	-0.050715316
47	0xbda499be	-0.080371365
48	0x3cc1048b	0.023561737
49	0x3cb6b368	0.022302344
50	0xbe454872	-0.19265917
51	0xbdb418ff	-0.0879383
52	0xbe8d0da3	-0.27549466
53	0xbdfbd191	-0.12295831
54	0x3d91d504	0.07120708
55	0x3dc2ee56	0.09518115
56	0xbc524171	-0.012832985
57	0x3e206973	0.15665226
58	0x3e1af4c2	0.1513243
59	0x3ddd6ac4	0.108113796
60	0x3b83a3ac	0.004017314
61	0xbdc615f4	-0.09672156
62	0xbbcfba4c	-0.006339347
63	0xbe033cbf	-0.12816142
64	0xbeaad8cd	-0.3336853
65	0xbe9bc55f	-0.3042402
66	0xbdfefce9	-0.124505825
67	0xbe85eb9f	-0.26156327
68	0xbe91065d	-0.28325167
69	0xbba55d70	-0.005046539
70	0xbe31f541	-0.17378713
71	0x3cee04dd	0.029055053
72	0xbe4c3ef3	-0.19945888
73	0x3e1ac3df	0.15113781
74	0x3ddc1ee5	0.1074808
75	0xbe5080cf	-0.20361637
76	0xbbfdf627	-0.007750291
77	0xbe5b5c2c	-0.2142188
78	0x3db02dcd	0.08602486
79	0x3dae2fcf	0.085052125
80	0xbb613ace	-0.0034367326
81	0xbe4a6ccd	-0.19768067
82	0xbe864b28	-0.26229215
83	0x3dc9b534	0.09849015
84	0xbe8f9bab	-0.28048453
85	0xbe5c4d96	-0.21513972
86	0xbd30eba6	-0.04319348
87	0xbd488317	-0.048953142
88	0xbcb4abc3	-0.022054559
89	0x3d8273c1	0.063697346
90	0xbe8139d4	-0.25239432
91	0xbc1538ff	-0.009107827
92	0xbcd8eec6	-0.026481044
93	0xbe36ead9	-0.17863025
94	0xbdad7898	-0.08470267
95	0xbe7873fa	-0.24262992
96	0x3e1ab674	0.15108663
97	0xbeaba18b	-0.33521685
98	0xbe185d06	-0.14879236
99	0xbdd82134	-0.10553208
100	0x2a596189	1.9307311e-13
101	0x2a98e448	2.7159026e-13
102	0xaa721c7d	-2.1503802e-13
103	0x2980eff8	5.72597e-14
104	0x299d2472	6.978523e-14
105	0x2a303b90	1.5652605e-13
106	0xaa33e26e	-1.5976952e-13
107	0x2ae1da55	4.0119527e-13
108	0xa97ec597	-5.657071e-14
109	0x2ac9669f	3.577598e-13
110	0x2990f4bf	6.437341e-14
111	0xa6c5baaa	-1.3720216e-15
112	0xaaa58fa8	-2.940957e-13
113	0x29310440	3.930558e-14
114	0x2a8e40ef	2.5269324e-13
115	0x2aed1041	4.2110936e-13
116	0xaa5bd978	-1.9526557e-13
117	0x29a6a4f9	7.400499e-14
118	0xab099849	-4.8883516e-13
119	0xa9b602db	-8.082919e-14
120	0xaa19593e	-1.3620092e-13
121	0xaaaac882	-3.0337197e-13
122	0xa9f0be52	-1.06911563e-13
123	0x290f5571	3.1826487e-14
124	0xa93a998a	-4.143347e-14
125	0xa75bea1b	-3.0519264e-15
126	0xaa7bf53f	-2.2378365e-13
127	0xa9d0f314	-9.279223e-14
128	0xa9cd2846	-9.110815e-14
129	0x290d64cf	3.1395727e-14
130	0x29b63693	8.091891e-14
131	0x296d2d29	5.266374e-14
132	0xa950cefa	-4.63648e-14
133	0xa9fc5274	-1.12053514e-13
134	0xa9cb3719	-9.024569e-14
135	0xa9100ea6	-3.198713e-14
136	0xaad099dd	-3.7054986e-13
137	0x28495c20	1.1177718e-14
138	0xaa5806cd	-1.9187013e-13
139	0xaaa3c904	-2.90941e-13
140	0x28126fe6	8.128892e-15
141	0x2a310d30	1.5725333e-13
142	0xa80db704	-7.8667575e-15
143	0xa902bd91	-2.903022e-14
144	0x2adbcc98	3.904418e-13
145	0xab112156	-5.156061e-13
146	0x2ab45bc1	3.203809e-13
147	0x29411654	4.2873975e-14
148	0x2a5165a5	1.8598194e-13
149	0x2a37c054	1.6320392e-13
150	0xaa0c20cf	-1.244588e-13
151	0xa949769c	-4.4733843e-14
152	0xaabc2542	-3.3421361e-13
153	0xa7737e21	-3.37914e-15
154	0x2918a84c	3.3896754e-14
155	0xaa4cb486	-1.8181471e-13
156	0x2abb3094	3.325158e-13
157	0x2a17ad3e	1.34716e-13
158	0xaaccae01	-3.635842e-13
159	0x2a74340c	2.1689611e-13
160	0xaaf841ae	-4.4099224e-13
161	0x27d6a756	5.9578358e-15
162	0xa94f5fde	-4.6046385e-14
163	0x29d5cf56	9.495067e-14
164	0xaaac5c21	-3.0617265e-13
165	0x2abb0757	3.3222966e-13
166	0x29b9be94	8.2487104e-14
167	0xaa0453eb	-1.175307e-13
168	0xab0816c2	-4.834849e-13
169	0x299c31f6	6.9364585e-14
170	0xa9a9e0f9	-7.544134e-14
171	0xaa6b34c4	-2.08905e-13
172	0xaa2ba831	-1.5246204e-13
173	0xab09d2d2	-4.896475e-13
174	0x2a6ee529	2.1218152e-13
175	0xa9e924ab	-1.03536395e-13
176	0x2b0055b4	4.559367e-13
177	0x29cc7a9c	9.080689e-14
178	0xa994070f	-6.573745e-14
179	0xa9d969fc	-9.655121e-14
180	0x2a3e3866	1.6894957e-13
181	0x29e411f0	1.01283456e-13
182	0xaa274494	-1.4856372e-13
183	0x25eb6fe0	4.084181e-16
184	0x2a34793f	1.6029277e-13
185	0xa77783ea	-3.4349647e-15
186	0x272ec7ec	2.4255729e-15
187	0xaa8ebd8c	-2.5355792e-13
188	0x2b0c5fdb	4.987102e-13
189	0xa9f8bbd9	-1.1045999e-13
190	0x2aa32be8	2.8985083e-13
191	0xaac61c36	-3.519144e-13
192	0x2a187240	1.353995e-13
193	0x29ffdcc2	1.136257e-13
194	0x2a75c657	2.1829184e-13
195	0xa9dec420	-9.892803e-14
196	0x2a756f86	2.1799064e-13
197	0xaa5a39e8	-1.938238e-13
198	0x267f1750	8.850249e-16
199	0x2b00062e	4.548331e-13
200	0xa99ff5f0	-7.103682e-14
201	0xa9c66348	-8.810189e-14
202	0xa7a838e7	-4.669106e-15
203	0x2a22f2af	1.4472688e-13
204	0x2af5b92e	4.3649237e-13
205	0x2a970bea	2.6831255e-13
206	0xaa831cea	-2.3290338e-13
207	0x2a96ba92	2.6774812e-13
208	0xaa7a8298	-2.2249769e-13
209	0x284296b0	1.08018385e-14
210	0xa72ef430	-2.4279725e-15
211	0x2a27c32d	1.4900295e-13
212	0xa7140d7a	-2.0546432e-15
213	0x288bf06e	1.553637e-14
214	0x29ae6f24	7.746432e-14
215	0x2a664e6a	2.0455309e-13
216	0x29a9280e	7.512056e-14
217	0x2b00f318	4.5812095e-13
218	0xaaa92fa7	-3.0053496e-13
219	0x2955b66c	4.7453727e-14
220	0xa957e735	-4.794013e-14
221	0xa99e34dc	-7.025779e-14
222	0x2a965908	2.670713e-13
223	0x2b09c751	4.8948784e-13
224	0x29036d34	2.9182562e-14
225	0xa6c79b10	-1.3850429e-15
226	0xa90bf441	-3.1076057e-14
227	0xaa2c509c	-1.5304636e-13
228	0x2a2f62b7	1.5577371e-13
229	0x2a8470aa	2.3526087e-13
230	0x2ace49de	3.6644207e-13
231	0xaaa6b79a	-2.9614923e-13
232	0xa98ea6d2	-6.3350055e-14
233	0x2a4a07c6	1.7943901e-13
234	0x2a27f51a	1.4917616e-13
235	0x2aa94775	3.0070014e-13
236	0xaac53734	-3.5032535e-13
237	0xa9bf1433	-8.485608e-14
238	0xa83bfc10	-1.0435243e-14
239	0xaa0afe18	-1.2345019e-13
240	0xab148291	-5.276136e-13
241	0x2aa43696	2.917013e-13
242	0x28828c65	1.4493786e-14
243	0xaa1ebd09	-1.4098804e-13
244	0xa803573d	-7.290878e-15
245	0x293bd72c	4.1708973e-14
246	0xa93bb901	-4.1682806e-14
247	0xaaf50ac8	-4.3528224e-13
248	0xaa98b326	-2.7124933e-13
249	0xa9b76cf4	-8.145733e-14
250	0x28e5c908	2.551129e-14
251	0x2a7f475e	2.267331e-13
252	0xa9b83d68	-8.181894e-14
253	0x2a61792e	2.0026057e-13
254	0xab0de35e	-5.04088e-13
255	0x28e642dc	2.5564125e-14

weight f4 [12, 100]
0	0xbcbb2534	-0.022844888
1	0xba96c024	-0.0011501354
2	0x3c1c8b38	0.009554677
3	0x3debaff6	0.11508171
4	0x3c120e4a	0.00891454
5	0xbd7272a2	-0.059191354
6	0xbe1459f3	-0.14487438
7	0x3d82c589	0.06385333
8	0xbb1b0a0f	-0.0023657118
9	0xbca992ca	-0.020699877
10	0x3d8da84d	0.069168665
11	0x3d51e192	0.05124051
12	0xbb1298a4	-0.0022368813
13	0x3cd03cd7	0.025419636
14	0xbdf59c6d	-0.119927265
15	0xbbb522f8	-0.0055278502
16	0x3d07a1c4	0.033113256
17	0x3d93fcac	0.07225928
18	0xbd866c72	-0.06563653
19	0xbe0b153c	-0.13582319
20	0x3ccce658	0.02501218
21	0xbd0ca8da	-0.034340717
22	0xbd9959da	-0.07487841
23	0x3c2340d9	0.009964191
24	0x3c075d2b	0.008261959
25	0x3d8ee25c	0.069767684
26	0xbb8239fd	-0.003974198
27	0x3c91da42	0.017804269
28	0x3c912574	0.017718054
29	0xbd9d2be1	-0.07674385
30	0x3d64adda	0.05582986
31	0x3d0d0b5e	0.03443467
32	0xbe1db55f	-0.15401219
33	0xbc6877de	-0.014188735
34	0x3d3c0e36	0.04591199
35	0xbc4dbdbc	-0.012557443
36	0x3bc160e1	0.0059014414
37	0x3d199b62	0.0375017
38	0xbcf8e6b1	-0.03038344
39	0x3c488562	0.012238832
40	0x3b657c80	0.0035016835
41	0x3cc06b88	0.023488775
42	0xbdff8970	-0.12477386
43	0xbdca010d	-0.09863482
44	0xbd8bf25d	-0.068333365
45	0xbdc8124f	-0.09769117
46	0xbc177560	-0.009244293
47	0x3b4ebfb4	0.003154737
48	0x3ca3391f	0.019924698
49	0xbe148802	-0.14505008
50	0x3deca7b3	0.115554236
51	0xbcb08344	-0.021546967
52	0xbd209788	-0.03920701
53	0xbde21c8e	-0.110406026
54	0xbe25e669	-0.16201176
55	0x3d50c447	0.050968435
56	0x3db7c9d5	0.08974043
57	0x3c5dc6be	0.013536153
58	0x3d8cb63b	0.06870695
59	0x3d25c864	0.04047431
60	0xbd38b30b	-0.045092624
61	0x3d8e60c9	0.06952054
62	0x3c72418a	0.014786134
63	0x3c5030a1	0.012706907
64	0x3cf48212	0.029847179
65	0x3d3f2bf9	0.046672795
66	0x3d07ecd0	0.033184826
67	0x3cd3d24e	0.025857117
68	0xbe1e8e7a	-0.15484038
69	0x3c044d91	0.008075134
70	0x3d6cf339	0.057849143
71	0x3da5e7ea	0.08100875
72	0xbdbeb1ef	-0.09311282
73	0xbd1761f7	-0.03695866
74	0x3e2fde52	0.17174652
75	0x3ddc8bd8	0.107688606
76	0xbdce9e33	-0.10088768
77	0x3bc516c4	0.0060146768
78	0xbcff2a6e	-0.031148162
79	0x3de5a663	0.112133764
80	0x3d29e018	0.041473478
81	0x3da70502	0.08155252
82	0x3d4b108e	0.049576335
83	0xbda5f72d	-0.08103786
84	0x3d4ded3e	0.05027508
85	0x3cc80f37	0.024421318
86	0x3db42e04	0.08797839
87	0x3d805de2	0.06267907
88	0xbcfa2e4c	-0.030539654
89	0xbd152778	-0.036414593
90	0x3dbe9f62	0.093077436
91	0x3d94ed51	0.07271827
92	0x3d89dbcc	0.06731376
93	0xbcf03bdc	-0.029325418
94	0xbd00a824	-0.03141035
95	0x3c23ccd2	0.009997563
96	0x3e2b2dc2	0.16716674
97	0x3d8a9659	0.06766958
98	0x3c235fc2	0.009971561
99	0x3cd739f8	0.026272759
100	0xbe905653	-0.2819086
101	0x3e67b5c0	0.22627926
102	0x3d8f40b0	0.0699476
103	0x3e79c129	0.24390091
104	0xbe530483	-0.2060719
105	0x3d0aab51	0.033854786
106	0xbdbdfc19	-0.092765994
107	0x3d564dba	0.05232022
108	0xbee393c7	-0.44448683
109	0xbeedbad6	-0.46431607
110	0x3df63489	0.12021739
111	0x3f1aceff	0.604721
112	0xbdffef86	-0.12496857
113	0x3e2f2f1b	0.17107813
114	0x3d3823d4	0.044956043
115	0xbe6e9a50	-0.23301053
116	0x3ddf62d2	0.1090752
117	0xbdebff2e	-0.11523281
118	0x3e60bf84	0.21948057
119	0x3d9abceb	0.075555645
120	0x3e1e0fdc	0.15435737
121	0xbdb47c76	-0.088128015
122	0xbed9a7ee	-0.42510933
123	0x3e09ae12	0.13445309
124	0x3cd2b7e2	0.025722448
125	0xbec9eb86	-0.39437503
126	0x3e6570bd	0.22406287
127	0x3dd3f836	0.10350077
128	0x3cf3fccd	0.02978363
129	0xbe2c3dd9	-0.16820468
130	0xbeba2604	-0.3635713
131	0x3d89d8bc	0.06730792
132	0xbeb4c5fb	-0.35307297
133	0x3d44fd71	0.048093263
134	0x3ec7ec03	0.3904725
135	0xbe601ffd	-0.21887203
136	0x3e1d4dea	0.15361753
137	0xbd22e990	-0.039773524
138	0xbeb066b5	-0.3445336
139	0xbf47b6be	-0.7801322
140	0xbe3923ff	-0.18080138
141	0x3c957fa0	0.018249333
142	0x3d692264	0.056917563
143	0xbe52b5eb	-0.20577209
144	0xbd3e8bb2	-0.046519943
145	0xbe28d7a1	-0.16488506
146	0xbe2c90cf	-0.16852115
147	0xbf0e195b	-0.5550744
148	0xbadff312	-0.001708599
149	0x3c282296	0.010262152
150	0x3dd860bf	0.10565328
151	0xbe8a5c30	-0.27023458
152	0xbe4da8f2	-0.20083979
153	0x3d246368	0.040133864
154	0xbf016b2e	-0.5055417
155	0xbe2b552d	-0.1673171
156	0xbed1af2a	-0.40953952
157	0xbe64c203	-0.22339635
158	0xbd445d47	-0.04794052
159	0xbeac8aa1	-0.33699515
160	0xbea0b102	-0.31385046
161	0xbe8f88a3	-0.28033933
162	0xbdb0009f	-0.085938685
163	0xbe2a94ff	-0.166584
164	0x3d52dbaa	0.05147902
165	0x3e1366e8	0.14394724
166	0x3e02cf96	0.127745
167	0x3d91e09f	0.07122921
168	0xbd96e198	-0.07367247
169	0x3c472424	0.012154613
170	0x3d350e02	0.044202812
171	0xbe9eac95	-0.30991045
172	0x3dc650ba	0.09683366
173	0xbde392c7	-0.1111198
174	0xbe92758d	-0.2860531
175	0x3cf91fc7	0.03041066
176	0x3e5cffaa	0.21581903
177	0x3d34fc36	0.04418584
178	0xbd54a899	-0.0519186
179	0x3f054dcf	0.5207185
180	0xbdd8d207	-0.105869345
181	0xbe420db8	-0.18950546
182	0x3d97c8a2	0.074113145
183	0x3d1f0cd1	0.038830582
184	0xbeed121c	-0.4630288
185	0x3e9d16f8	0.30681586
186	0x3c89b4ce	0.016809847
187	0x3eae1eba	0.34007818
188	0x3e9f7995	0.31147447
189	0xbe49edb5	-0.19719584
190	0xbea1ca84	-0.3159982
191	0xbc90c941	-0.01767409
192	0x3dfc3ab9	0.12315888
193	0xbe750169	-0.23926319
194	0x3e0cb66e	0.13741466
195	0x3d25221b	0.04031573
196	0xbd8da9b8	-0.06917137
197	0xbed4b3bc	-0.41543376
198	0xbeaf9b48	-0.34298158
199	0xbd12b46c	-0.035816595
200	0x3db02911	0.08601583
201	0x3df748ac	0.12074408
202	0xbe3431a8	-0.17597067
203	0xbdc8ce2e	-0.09804951
204	0x3eba9b94	0.36446822
205	0xbbe0528c	-0.006845778
206	0x3ddd937a	0.108191445
207	0xbe353ed9	-0.17699756
208	0x3f1de982	0.6168443
209	0xbe4367d4	-0.19082576
210	0xbe3ff532	-0.18745878
211	0xbe6e2b14	-0.2325862
212	0x3d4b654f	0.049657162
213	0x3e11aa12	0.14225033
214	0x3dbdf36b	0.09274944
215	0x3ec4ccdb	0.38437542
216	0x3de57e35	0.11205713
217	0xbe945774	-0.2897297
218	0xbed0f670	-0.40813017
219	0xbde7f390	-0.11325753
220	0xbea13a39	-0.31489733
221	0x3bcd1b40	0.006259352
222	0x3e8ea64b	0.27861246
223	0xbdcbe4b7	-0.09955733
224	0xbd99e937	-0.07515185
225	0xbba3eaa8	-0.0050023384
226	0xbd7eec2d	-0.062236954
227	0xbe0f8a50	-0.14017606
228	0x3f1ab16c	0.60426974
229	0xbe68daa8	-0.2273966
230	0xbf068c4a	-0.52557814
231	0xbf0d30e0	-0.551527
232	0xbeec867b	-0.4619635
233	0xbe6fe4bc	-0.23427099
234	0xbf0d8130	-0.5527525
235	0x3e511d73	0.2042139
236	0xbedb074c	-0.42779005
237	0xbe55b25f	-0.20868824
238	0xbe06bf72	-0.13158968
239	0x3e80d4eb	0.25162444
240	0xbc962b81	-0.018331291
241	0xbe4405e9	-0.1914288
242	0x3e735811	0.23764063
243	0x3d8417ac	0.064498276
244	0x3d1d975f	0.038474437
245	0x3d94a52d	0.07258067
246	0xbe1f7729	-0.155728
247	0x3e0272ad	0.12739058
248	0xbe653582	-0.22383693
249	0x3e294c80	0.16533089
250	0xbe99f5b8	-0.3007028
251	0x3eb9b3c0	0.3626995
252	0x3c875709	0.016520994
253	0x3ec32189	0.38111523
254	0x3ed49ea8	0.41527295
255	0x3e9f80f5	0.31153074

weight f4 [12, 100]
0	0xbd17b55b	-0.03703819
1	0x3c8fd9ac	0.017559849
2	0xbcf8cc18	-0.030370757
3	0xbbb464c4	-0.0055051763
4	0xbc895eeb	-0.016768893
5	0xbcf9e4ea	-0.030504663
6	0x3c0016a6	0.0078179
7	0xbb677563	-0.003531777
8	0xbcb43459	-0.021997618
9	0x3c1ebe8c	0.009688985
10	0x3b45ac45	0.0030162495
11	0xbccf7b7f	-0.025327442
12	0xbb1d743b	-0.0024025578
13	0xbc90b225	-0.017663071
14	0x3b864018	0.004096996
15	0xbc25319a	-0.010082627
16	0xbc3a7adb	-0.01138183
17	0x3b604120	0.0034218505
18	0xbceac718	-0.028659388
19	0x3b8d517f	0.0043126936
20	0xbc96b3ef	-0.018396346
21	0x3cfce57c	0.030871145
22	0xbcad9b1e	-0.02119213
23	0xbcca3715	-0.024684468
24	0x3c622cf5	0.013804664
25	0x3c7b7bc6	0.015349334
26	0xbb9a8186	-0.0047151474
27	0xbc83255e	-0.016009029
28	0xbc73a968	-0.014871933
29	0x3ad03764	0.0015885648
30	0xbb893fbd	-0.0041885064
31	0xbcc9b1e6	-0.024620961
32	0x3c1013be	0.008793769
33	0x3c112d80	0.008860946
34	0x3cc6501d	0.024208123
35	0x3b2565e6	0.0025237738
36	0xbbcf2452	-0.0063214684
37	0x3c2e5a21	0.010641606
38	0x3ca604b5	0.020265916
39	0xbc26b0ef	-0.01017402
40	0x3d13b90d	0.03606515
41	0xbc02215c	-0.007942524
42	0xbcda4f8a	-0.026649255
43	0xbb8f60ae	-0.004375539
44	0xbca1a3bf	-0.0197314
45	0xbc927bb8	-0.01788126
46	0xbb46019e	-0.0030213366
47	0xbc9fc736	-0.01950417
48	0xbb48293d	-0.0030542158
49	0x3a5be1a4	0.000838781
50	0xbb0d18d9	-0.0021529703
51	0x398a6928	0.0002639976
52	0xbb91732f	-0.00443878
53	0x3c86d09b	0.016456893
54	0xbca6182d	-0.0202752
55	0xbc3f40f5	-0.011673202
56	0x3c00b890	0.007856503
57	0x3b26ff6b	0.002548183
58	0xbc0ecdf8	-0.008716099
59	0xbb3fc3ac	-0.0029260917
60	0x3c0fbc25	0.0087728845
61	0x3c7693b1	0.015049861
62	0x3ad9beb6	0.0016612622
63	0x3c4ceaf8	0.012507193
64	0x3bbea0fa	0.0058175297
65	0x3cda9eb6	0.026687007
66	0x3d217c2f	0.03942507
67	0x3c2a52e4	0.010395739
68	0xbc617335	-0.013760378
69	0x3cf5d01d	0.030006463
70	0xbcf44cea	-0.029821832
71	0xb9ac44a5	-0.0003285754
72	0xbc21bead	-0.009872121
73	0x3cd74672	0.026278708
74	0x3cd1220b	0.025528928
75	0xbbdda62e	-0.006764195
76	0xbc4ae5fa	-0.012383932
77	0xbba57fc4	-0.0050506312
78	0x3b1bf23a	0.0023795501
79	0x3c2c41d8	0.010513745
80	0xbaab1817	-0.0013053444
81	0x3cfb53e2	0.030679647
82	0x3a8f5f24	0.0010938388
83	0xbb6e739b	-0.0036384824
84	0xba81216e	-0.0009851882
85	0x3b81657a	0.0039488645
86	0x3cdb3500	0.02675867
87	0xba63a27c	-0.0008683575
88	0xbcac58f8	-0.021038517
89	0x3a8e7eff	0.0010871588
90	0xb9cb265b	-0.00038747754
91	0xb804a070	-3.162067e-05
92	0xbcb44bc5	-0.022008786
93	0x3c930a06	0.017949115
94	0x3c399fc7	0.011329598
95	0xbc46d64e	-0.012136055
96	0x3bbb3c7d	0.005713998
97	0x3b1231f9	0.0022307618
98	0x3c86979f	0.01642972
99	0xbca381be	-0.019959327
100	0xbdacd75d	-0.08439515
101	0xbc2bcdd5	-0.010486086
102	0xbe0cd5e4	-0.13753468
103	0x3d42bd44	0.04754378
104	0xbd8dc98c	-0.06923208
105	0xbd01233e	-0.03152775
106	0xbdc38619	-0.095470615
107	0xbc6bf330	-0.014401242
108	0x3d9a2312	0.075262204
109	0x3d887faa	0.06664975
110	0x3cde0dce	0.027106192
111	0x3b63183b	0.0034651894
112	0xbe16476e	-0.14675686
113	0xbe07e171	-0.13269593
114	0x3d197b56	0.037471138
115	0x3db43fb0	0.0880121
116	0xbe6d80bc	-0.2319364
117	0x3e581859	0.21103038
118	0xbd7b7a41	-0.061395887
119	0x3e7fab0d	0.24967594
120	0xbde64d7d	-0.112452485
121	0xbd866c38	-0.0656361
122	0x3d669f55	0.056304295
123	0x3e80d080	0.25159073
124	0x3c31b776	0.010846963
125	0xbc48f016	-0.012264272
126	0xbd37b0ea	-0.044846453
127	0xbdc78ffd	-0.097442605
128	0x3e09e1c4	0.13465029
129	0xbd70435d	-0.058657993
130	0xbe134c4b	-0.14384572
131	0x3d5f49db	0.054513793
132	0xbda07bbb	-0.078361
133	0xbe680dcf	-0.22661518
134	0xbc752e02	-0.014964582
135	0x3e4971dd	0.19672342
136	0xbcfa3b9f	-0.030546008
137	0xbd8d050d	-0.06885729
138	0x3e8190bd	0.2530574
139	0xbc982a43	-0.01857484
140	0x3da6621d	0.081241824
141	0xbe6f9ecc	-0.2340042
142	0xbd30c62a	-0.043157734
143	0x3d3930ef	0.045212682
144	0x3e0dc770	0.1384561
145	0xbde6ae2b	-0.11263689
146	0x3e18e4d3	0.1493104
147	0xbd38f34f	-0.045153912
148	0x3b1ff610	0.002440814
149	0xbdc37e62	-0.0954559
150	0x3ca3325f	0.01992148
151	0xbe7afb5b	-0.24509947
152	0x3ecf84d0	0.40531015
153	0xbe21b478	-0.157915
154	0x3c346db6	0.011012485
155	0xbc3c666e	-0.0114990305
156	0x3e98b9f7	0.2982938
157	0xbd89fd67	-0.06737786
158	0xbe2ca662	-0.16860345
159	0x3de8819b	0.11352845
160	0xbe3a6781	-0.18203546
161	0x3d87e4a3	0.06635406
162	0x3b8a2017	0.004215251
163	0xbddc27a7	-0.107497506
164	0x3e972af9	0.29524973
165	0x3de8b3ae	0.11362396
166	0x3d94257e	0.072337136
167	0x3daa5956	0.08317821
168	0xbdd5837c	-0.10425469
169	0x3d341259	0.04396281
170	0x3dbb1552	0.09134926
171	0x3aa28baa	0.0012401242
172	0x3d173b6b	0.0369219
173	0xbd92909c	-0.07156488
174	0x3e15b40a	0.1461946
175	0xbde9c0a8	-0.114136994
176	0x3dd2275e	0.10261415
177	0xbe10914d	-0.14117928
178	0xbcd21ddc	-0.025649004
179	0xbe897b90	-0.26852083
180	0x3d046f34	0.032332614
181	0x3db75d30	0.08953321
182	0xbdd3c3de	-0.10340093
183	0xbd176548	-0.036961824
184	0x3d8a08ac	0.06739935
185	0x3c0be8a0	0.008539349
186	0xbd508de5	-0.05091657
187	0x3ea954c2	0.33072478
188	0xbe0a06fe	-0.1347923
189	0x3e8fbde3	0.2807456
190	0xbc9e6ed2	-0.019339953
191	0xbd0be224	-0.03415121
192	0x3cab72be	0.020928737
193	0xbd9d2f02	-0.07674982
194	0x3db89999	0.090136714
195	0xbd893fd9	-0.06701631
196	0x3df1b067	0.11801224
197	0xbcfa30ac	-0.030540787
198	0x3d504087	0.050842788
199	0xbdc607d7	-0.09669464
200	0x3cd6b562	0.026209537
201	0x3e25900f	0.16168235
202	0xbd1d60a2	-0.038422234
203	0x3decf0ba	0.115693524
204	0xbc168539	-0.009187036
205	0xbe05c618	-0.13063848
206	0x3e0cf08b	0.13763635
207	0xbd9881e2	-0.07446648
208	0x3e213b59	0.15745296
209	0xbda9b18c	-0.082858175
210	0x3e238538	0.15968788
211	0x3dbf54c0	0.09342337
212	0xbd4a3d8b	-0.0493751
213	0x3e464595	0.19362481
214	0xbd4c623c	-0.04989837
215	0x3d70a46e	0.058750562
216	0x3e0db188	0.13837254
217	0x3cfa1201	0.030526163
218	0xbcbc1318	-0.022958323
219	0xbdd85156	-0.105623886
220	0xbcaee0dd	-0.021347458
221	0x3dafb869	0.08580095
222	0xbb884bc0	-0.0041594207
223	0xbd16287a	-0.036659695
224	0xbdf4d171	-0.1195401
225	0xbd1f0619	-0.038824175
226	0x3e92bdc2	0.286604
227	0xbe4dc230	-0.20093608
228	0x3dc79c86	0.09746651
229	0xbe10ba0e	-0.14133474
230	0x3dcfa4d2	0.10138859
231	0xbe388ba1	-0.18022014
232	0x3e1bb7a3	0.1520677
233	0x3db2b90f	0.087267034
234	0x3b50880f	0.0031819378
235	0xbe4227f8	-0.1896056
236	0x3cef8acb	0.029240986
237	0xbd9390b8	-0.07205337
238	0x3dce7d44	0.10082486
239	0x3ca68131	0.020325275
240	0x3db252d0	0.087072015
241	0xbdd63778	-0.104597986
242	0x39f9b550	0.0004762807
243	0x3d24e22d	0.04025476
244	0x3ded7d31	0.11596144
245	0xbd8c6277	-0.06854718
246	0xbd533b10	-0.05157
247	0xbd9f9cc8	-0.077935755
248	0xbdcd2bb4	-0.10018101
249	0xbc1756d6	-0.009237012
250	0xbbd75c1c	-0.0065722596
251	0xbdaa7225	-0.083225526
252	0xbe2c863e	-0.16848084
253	0xbdb4decd	-0.088315584
254	0x3de7d197	0.11319273
255	0x3c8edb8f	0.017438678

weight f4 [10, 100]
0	0xbcb508bc	-0.022098891
1	0xbea910a9	-0.33020523
2	0x3dac3e23	0.08410289
3	0xbe877321	-0.26455024
4	0x3e364773	0.17800693
5	0xbe27d1f1	-0.1638868
6	0x3e264662	0.16237786
7	0xbf06daa0	-0.52677345
8	0xbeef9fde	-0.46801656
9	0xbd84ad59	-0.06478376
10	0xbe74445b	-0.238542
11	0xbe29b979	-0.16574658
12	0xbe49ab46	-0.19694242
13	0xbe729746	-0.23690519
14	0xbd8fd26b	-0.07022556
15	0x3e4536e8	0.19259226
16	0xbd923879	-0.071396776
17	0x3e1bbba5	0.152083
18	0xbe5fe7e8	-0.21865809
19	0x3e711428	0.23542845
20	0xbe63cdbc	-0.2224645
21	0x3e0a4e9c	0.1350655
22	0x3cce6639	0.025195228
23	0xbc56e4aa	-0.013116041
24	0x3eb13635	0.3461167
25	0x3ef4b68b	0.4779552
26	0xbeadb469	-0.33926705
27	0xbe014ae3	-0.12626223
28	0xbbe2c1be	-0.0069200685
29	0xbd21292d	-0.03934591
30	0x3e8f5bed	0.2799982
31	0xbc3759c6	-0.011190837
32	0xbc3f691d	-0.011682776
33	0xbdde4a6d	-0.10854039
34	0xbd60a3ab	-0.054843586
35	0xbded5b9f	-0.11589741
36	0xbe8e86da	-0.2783726
37	0x3d64406a	0.055725493
38	0x3db2ad15	0.08724419
39	0xbd8ac92a	-0.0677665
40	0xbe410a7f	-0.1885166
41	0x3dcbf47a	0.099587396
42	0xbd5140cd	-0.05108719
43	0xbeb46de1	-0.3524008
44	0xbe1cee39	-0.1532525
45	0xbcdc51e7	-0.026894523
46	0x3def0eec	0.11672768
47	0xbe743c3b	-0.23851101
48	0x3dc364b4	0.09540692
49	0x3df5a3b8	0.119941175
50	0xbdebc1bc	-0.11511561
51	0xbe7c1a5a	-0.24619427
52	0x3e28288c	0.16421717
53	0xbcb3ce76	-0.021949034
54	0xbd8ff9b7	-0.07030051
55	0xbd1cd98e	-0.038293414
56	0x3e92abfe	0.28646845
57	0x3e8e816d	0.2783312
58	0xbdce6fea	-0.1007994
59	0x3e443fa6	0.19164905
60	0xbd766d0f	-0.0601626
61	0xbda3ac0e	-0.07991801
62	0xbe5967ce	-0.21231005
63	0x3e2bd766	0.16781387
64	0x3db95619	0.09049625
65	0x3d71f147	0.05906799
66	0xbe0c259c	-0.13686222
67	0xbea9962f	-0.33122393
68	0x3d4fa40f	0.050693568
69	0xbe3c5104	-0.1839028
70	0xbe720ecb	-0.23638456
71	0xbc6f26e1	-0.014596672
72	0x3ea875e2	0.32902437
73	0x3e2c27e0	0.16812086
74	0x3e654fcc	0.22393721
75	0x3d8310d8	0.06399697
76	0xbef2a501	-0.47391513
77	0xbddbe400	-0.10736847
78	0xbd4c6189	-0.049897704
79	0xbe9fbe58	-0.31199908
80	0x3e79c5d3	0.2439187
81	0xbe46c84c	-0.19412345
82	0xbc322b87	-0.010874636
83	0x3dc77b1c	0.09740278
84	0xbe8959e9	-0.26826409
85	0xbe1621a6	-0.14661273
86	0xbe57f0b0	-0.21087909
87	0xbecd0236	-0.4004075
88	0xbd67f9ac	-0.05663459
89	0xbc809214	-0.015694655
90	0xbe9170ef	-0.28406474
91	0xbe8671b8	-0.26258636
92	0xbe215c7a	-0.15757933
93	0x3e18ac3d	0.14909454
94	0xbdabb69e	-0.08384441
95	0x3e9da3e1	0.30789092
96	0xbdb35960	-0.08757281
97	0x3d8cd20a	0.06875999
98	0xbd229ec5	-0.039702196
99	0xbe895dc2	-0.26829344
100	0x3e73718e	0.23773786
101	0xbe4d5c74	-0.200548
102	0x3e36020d	0.1777422
103	0x3e24f1fb	0.16107933
104	0x3db48446	0.08814292
105	0x3dc1e853	0.094681405
106	0x3d305477	0.043049302
107	0x3cb12e84	0.021628626
108	0x3ded0066	0.115723416
109	0x3c2cef76	0.010555139
110	0xbe3cbde4	-0.18431813
111	0x3e047566	0.12935409
112	0xbddb4541	-0.107065685
113	0xbe9ca2af	-0.30592868
114	0xbd9a1ae9	-0.07524664
115	0x3d8bfb67	0.068350606
116	0xbd959962	-0.07304646
117	0xbec09cf8	-0.37619758
118	0x3dfdf6ae	0.12400566
119	0xbca6bda5	-0.020354101
120	0xbc0c2a96	-0.008555075
121	0x3da10787	0.07862764
122	0x3e518445	0.20460613
123	0x3ed85816	0.42254704
124	0x3c86ba81	0.016446354
125	0x3daa5c76	0.08318417
126	0xbe243dc8	-0.16039193
127	0x3ca6aa02	0.020344738
128	0x3eaf56a6	0.34245795
129	0xbe514dc7	-0.20439826
130	0xbeded962	-0.43525225
131	0x3e615d87	0.22008334
132	0x3e34991d	0.17636533
133	0xbed622c4	-0.418234
134	0xbeb8d5bc	-0.36100566
135	0xbe415639	-0.18880548
136	0xbded3f5f	-0.11584353
137	0x3d3e273c	0.046424136
138	0xbece8f71	-0.40343812
139	0x3e5d53a1	0.21613933
140	0xbe6b6f98	-0.22991788
141	0x3dc54a20	0.09633279
142	0x3e870142	0.26368147
143	0x3d944596	0.07239835
144	0xbe516c7d	-0.20451541
145	0x3bc03724	0.0058659483
146	0xbd755da4	-0.059903756
147	0x3ee4b0da	0.44666177
148	0x3e5890bd	0.21148963
149	0xbd87df33	-0.06634369
150	0xbe54936f	-0.20759366
151	0xbce56a1d	-0.0280047
152	0x3c8641bd	0.016388768
153	0x3e8ef44c	0.2792076
154	0xbda5652f	-0.0807594
155	0x3db1611a	0.08661099
156	0xbf21948d	-0.63117296
157	0xbdb69cbb	-0.08916613
158	0xbd2cdf3c	-0.04220508
159	0xbebcfbe6	-0.36910933
160	0xbdeeecb9	-0.11666245
161	0xbedfdc0c	-0.4372257
162	0x3d89b65d	0.06724236
163	0x3d449ecb	0.048003
164	0x3d99316f	0.07480132
165	0x3e349445	0.17634685
166	0xbf0b81b1	-0.5449477
167	0xbe6e4617	-0.23268925
168	0x3e13c4d1	0.14430548
169	0xbe804b66	-0.25057524
170	0x3e9f11ae	0.31068176
171	0xbd709cad	-0.058743168
172	0x3d5de499	0.054173086
173	0xbf32328c	-0.6960838
174	0xbf0650ed	-0.5246723
175	0x3e0efd07	0.1396371
176	0xbe34bb9e	-0.17649695
177	0xbe694672	-0.22780779
178	0xbf01f990	-0.5077143
179	0x3e904434	0.28177035
180	0x3cb70089	0.022339122
181	0xbe1a8df8	-0.1509322
182	0xbe50d292	-0.20392826
183	0x3df48eca	0.11941297
184	0xbe38dbac	-0.18052548
185	0xbdd12cc9	-0.1021362
186	0x3e3fd71d	0.18734403
187	0x3f36d680	0.7142105
188	0x3d645e97	0.05575427
189	0x3e26434c	0.16236609
190	0xbe8cd85f	-0.27508828
191	0xbf00a41d	-0.50250417
192	0x3e64f3b5	0.22358592
193	0xbdbaf7f7	-0.09129327
194	0xbe4fc523	-0.20290045
195	0x3db6b72b	0.08921655
196	0xbce04dac	-0.027380787
197	0x3d8400c7	0.06445461
198	0x3d89c737	0.0672745
199	0x3b0e0fd7	0.0021676922
200	0x3eb16661	0.3464842
201	0x3d8965f2	0.06708898
202	0x3cae5b1a	0.021283675
203	0x3df2b7b9	0.118514486
204	0x3c85f9cc	0.016354464
205	0x3dd8b01e	0.10580467
206	0xbf08cf9b	-0.5344178
207	0x3ec83649	0.39103916
208	0x3ec905bf	0.39262196
209	0x3e32b142	0.17450431
210	0x3ea8e8b7	0.32990047
211	0xbec117a6	-0.37713355
212	0x3bc14960	0.0058986396
213	0x3d1cc189	0.038270507
214	0x3df24b64	0.11830786
215	0x3bc0653d	0.0058714435
216	0x3eeaea39	0.45881823
217	0xbe6d7e11	-0.23192622
218	0x3ef1d624	0.4723369
219	0xbe225e9e	-0.15856406
220	0x3e6ed5e4	0.2332378
221	0xbd959287	-0.073033385
222	0x3cdc6e20	0.02690798
223	0xbec9554a	-0.39322883
224	0xbee9a577	-0.45634052
225	0xbf2d0461	-0.67584807
226	0x3efb41cb	0.49073634
227	0x3ed11917	0.40839455
228	0xbe845345	-0.2584478
229	0x3cc8c7d5	0.02450935
230	0x3ec82839	0.39093187
231	0xbe2c4774	-0.16824132
232	0xbf86ae68	-1.0521975
233	0x3e8c2edc	0.273795
234	0x3d8123fe	0.06305693
235	0x3eb02c02	0.34408575
236	0xbd0e2180	-0.034699917
237	0xbe080a2f	-0.13285135
238	0x3ea3e0c3	0.32007417
239	0xbda5b69a	-0.08091469
240	0x3ee98d3b	0.45615563
241	0xbeb1e27c	-0.34743106
242	0xbecfbbef	-0.4057307
243	0xbeb4c5bc	-0.3530711
244	0xbdaddf60	-0.08489871
245	0xbced56e9	-0.028972106
246	0xbef99426	-0.4874584
247	0xbe75efd3	-0.24017267
248	0xbe819a30	-0.25312948
249	0xbe1c75b4	-0.15279275
250	0xbe9128b1	-0.28351358
251	0x3cc8e9ea	0.024525601
252	0xbec74aff	-0.38924405
253	0xbea05196	-0.31312245
254	0x3e087983	0.13327603
255	0xbd06e753	-0.03293545

weight f4 [6, 100]
0	0xbd3f730a	-0.04674057
1	0x3e1bec60	0.15226889
2	0xbe3b2b0a	-0.18278137
3	0xbdd25228	-0.10269576
4	0xbe908921	-0.2822962
5	0x3dbce70c	0.09223756
6	0xbdfa1d1d	-0.12212584
7	0x3e69c636	0.22829518
8	0xbe62a990	-0.22134995
9	0xbe67ff92	-0.22656086
10	0x39b708e8	0.00034911116
11	0xbe8c4551	-0.27396634
12	0xbe0cb34a	-0.13740268
13	0xbe3e7ab6	-0.18601498
14	0x3e0d323e	0.13788697
15	0xbd8a4771	-0.067519076
16	0x3dd6e037	0.10491984
17	0xbdd31c61	-0.10308147
18	0xbda43775	-0.0801839
19	0xbe9bc092	-0.30420357
20	0x3e2abe78	0.1667422
21	0xbe224b6e	-0.15849087
22	0x3d84387e	0.064560875
23	0xbe29857c	-0.16554826
24	0xbe6baa4b	-0.2301418
25	0xbe546dbe	-0.20744988
26	0x3cba191a	0.022717047
27	0xbe05a2bc	-0.1305036
28	0x3bc203d3	0.005920866
29	0x3d858aa3	0.065205835
30	0xbdf383e5	-0.11890391
31	0x3deacf51	0.11465324
32	0xbe0aff54	-0.13573962
33	0xbda70d00	-0.081567764
34	0xbd2576b8	-0.040396422
35	0x3e52fa14	0.2060321
36	0x3d19cae1	0.037546996
37	0xbe90073d	-0.28130522
38	0xbe05ac31	-0.13053967
39	0xbe86c124	-0.2631923
40	0x3cb49438	0.022043332
41	0xbe88215d	-0.26587954
42	0xbe0d2f69	-0.13787617
43	0x3d9724ce	0.07380067
44	0x3d57df2f	0.05270308
45	0xbe9a67ad	-0.30157223
46	0xbe5b800d	-0.21435566
47	0xbd8ccb48	-0.0687471
48	0xbe4e934f	-0.20173381
49	0x3dc97563	0.09836843
50	0x3e525e17	0.20543705
51	0x3e0d1079	0.13775815
52	0xbe7df3f9	-0.248001
53	0xbe714f60	-0.23565435
54	0x3cbd9d02	0.023146156
55	0x3e0c23a2	0.13685468
56	0xbe43bb52	-0.19114426
57	0xbdc6a9eb	-0.09700378
58	0xbe58ee09	-0.21184553
59	0x3d8d9ad9	0.069143005
60	0x3d23a0d5	0.039948303
61	0xbe66df05	-0.22546013
62	0xbd0a7b9c	-0.03380929
63	0x3ddfe841	0.10932971
64	0xbd2346b0	-0.039862335
65	0xbe323cc3	-0.17405991
66	0xb8c21218	-9.254011e-05
67	0xbe05b61b	-0.13057749
68	0xbdfd38ba	-0.12364335
69	0xbe1117f7	-0.14169298
70	0xbe64f812	-0.22360256
71	0xbe6aae96	-0.22918162
72	0xbc687dcf	-0.014190151
73	0xbcb7e487	-0.022447838
74	0xbdb92505	-0.09040264
75	0xbe7492d3	-0.23884134
76	0xbe8b744e	-0.2723717
77	0xbd3fd568	-0.04683438
78	0xbe73f29c	-0.23823017
79	0x3dcde716	0.10053842
80	0x3c9ce07a	0.019150008
81	0xbe1da369	-0.15394367
82	0xbe8e70c5	-0.2782041
83	0xbe0eeda9	-0.13957848
84	0xbe64e589	-0.22353186
85	0xbe0de578	-0.13857067
86	0xbce90d06	-0.028448593
87	0x3d45c0b2	0.04827947
88	0xbe87bd75	-0.26511732
89	0xbe020b7a	-0.1269969
90	0xbec0edc6	-0.37681407
91	0xbe9b86c8	-0.30376267
92	0xbdda65da	-0.10663958
93	0xbc78799a	-0.015165711
94	0xbe2a6d1e	-0.16643187
95	0x3d1e6c76	0.038677655
96	0xbe0ae998	-0.13565671
97	0x3cb3fe94	0.021971978
98	0xbebd9d37	-0.37034008
99	0x3cd76ebd	0.026297921
100	0x2a2671ba	1.4783219e-13
101	0xa862bfa3	-1.2587075e-14
102	0xa78ddb6a	-3.937325e-15
103	0xa893eeda	-1.6423864e-14
104	0xaa38eba6	-1.642424e-13
105	0x2a807f7d	2.282583e-13
106	0xaab78579	-3.2599945e-13
107	0xaa2c48e6	-1.530196e-13
108	0xaa3f7d53	-1.7007688e-13
109	0x2a35984a	1.6128865e-13
110	0x2910bb81	3.2137057e-14
111	0xaa8a54f2	-2.4572667e-13
112	0xa8919542	-1.6162964e-14
113	0xaa8b061b	-2.4695597e-13
114	0xa65d7100	-7.682792e-16
115	0xaac1e876	-3.444499e-13
116	0xaa35fbe1	-1.6163417e-13
117	0xa95ad00c	-4.8586176e-14
118	0x28b27afa	1.9815302e-14
119	0xa9aa7228	-7.5693195e-14
120	0xa8120182	-8.104955e-15
121	0x2b01e6e6	4.615044e-13
122	0x2ab925a6	3.2888725e-13
123	0xaa09cef4	-1.2239846e-13
124	0xa8070b5e	-7.49647e-15
125	0xa7b28b2a	-4.9555807e-15
126	0x2a83582c	2.3331456e-13
127	0x2a3eb133	1.6936868e-13
128	0x29ef7114	1.0633348e-13
129	0x2a103461	1.2807942e-13
130	0xa9a08cf6	-7.12988e-14
131	0xa964fc35	-5.0844925e-14
132	0xa969cc86	-5.191379e-14
133	0xaa400946	-1.7056243e-13
134	0xab09fc9d	-4.902275e-13
135	0x261d3680	5.454418e-16
136	0x2acd6b2b	3.6489678e-13
137	0x2a828a9d	2.318882e-13
138	0xa8903f4c	-1.6014662e-14
139	0xaa69747d	-2.0734972e-13
140	0x2abcb6ee	3.3522442e-13
141	0x2a64fec2	2.0338855e-13
142	0x2901a94e	2.8790602e-14
143	0x2a9b69d8	2.7606975e-13
144	0x28495254	1.11755935e-14
145	0x2657f888	7.492993e-16
146	0x29bdf86c	8.4363804e-14
147	0x2a330564	1.5900264e-13
148	0xaa7e9998	-2.261302e-13
149	0xa9cc3afb	-9.0696514e-14
150	0x291b3016	3.445862e-14
151	0x2a561b07	1.9016395e-13
152	0x278105e0	3.5811062e-15
153	0x2aa40296	2.9134047e-13
154	0x2abc5cf8	3.3460019e-13
155	0x29feed54	1.1321036e-13
156	0xaa8e628c	-2.5292648e-13
157	0x2aef1b42	4.2473842e-13
158	0xa7073350	-1.876283e-15
159	0x2998727c	6.770016e-14
160	0xaa079e5c	-1.204535e-13
161	0x2ab53155	3.218629e-13
162	0x2a94017d	2.6291114e-13
163	0xab0d2fa9	-5.0159405e-13
164	0xa919f31e	-3.4183695e-14
165	0xaa23c038	-1.4543998e-13
166	0x28efb907	2.6614573e-14
167	0x28d1602c	2.3245369e-14
168	0x29d42e61	9.422737e-14
169	0x2a0058db	1.1399512e-13
170	0xaada26e6	-3.875157e-13
171	0x28f56b14	2.7246902e-14
172	0xa9b68dc7	-8.107018e-14
173	0x2a764344	2.1872527e-13
174	0x29924641	6.4958896e-14
175	0xa8887bca	-1.5152718e-14
176	0xaa4b6baa	-1.8067375e-13
177	0x2a9abcae	2.7486818e-13
178	0x288d7c2c	1.5707996e-14
179	0xaa98c0e3	-2.7134466e-13
180	0x2a86708d	2.388128e-13
181	0xaaa1433b	-2.8645996e-13
182	0xa8d07ac2	-2.3145877e-14
183	0x2ac3ee2f	3.4804231e-13
184	0x2ad0e42a	3.7106543e-13
185	0x2b024321	4.627844e-13
186	0xaacdbe80	-3.65475e-13
187	0xa9f7d532	-1.1005987e-13
188	0x2adcd3cb	3.9226811e-13
189	0xaad09a1e	-3.7055163e-13
190	0xaa282172	-1.4933001e-13
191	0xa9b926aa	-8.2223575e-14
192	0xaab7d8cb	-3.265776e-13
193	0x2a493c0a	1.7873216e-13
194	0xa99fd3bb	-7.097748e-14
195	0x29cc7b4c	9.0808085e-14
196	0x250df640	1.2313233e-16
197	0xaaac5b8f	-3.061687e-13
198	0x28c57a44	2.1924418e-14
199	0xa8bd2937	-2.100109e-14
200	0x380dc109	3.3796798e-05
201	0x37bd2562	2.2547963e-05
202	0xb8ad4fd9	-8.2641556e-05
203	0xb7919ace	-1.7357434e-05
204	0x35ad4230	1.2908768e-06
205	0x3bc8c35a	0.0061268033
206	0x3c175efa	0.009238953
207	0x385c601d	5.25416e-05
208	0xb898e9b1	-7.291453e-05
209	0x3bb2d5bb	0.0054576076
210	0x386657c8	5.4918026e-05
211	0xbc479626	-0.012181794
212	0x38b5a3ce	8.6612636e-05
213	0xbc6fa7e6	-0.014627432
214	0xb80c436c	-3.3441393e-05
215	0x3613d548	2.2028853e-06
216	0xb9347b4e	-0.00017212072
217	0xb838b8f6	-4.4041277e-05
218	0xb50e8b20	-5.3101576e-07
219	0x397a3ac1	0.00023863745
220	0xb810d5a1	-3.4531233e-05
221	0xb7d0eab7	-2.490483e-05
222	0x3bbe2b80	0.0058035254
223	0xb7250166	-9.835092e-06
224	0x39038658	0.0001254318
225	0x3bcf93b0	0.0063347444
226	0x39168f2b	0.00014358449
227	0x37e0b558	2.6787326e-05
228	0x3b4e4354	0.0031473236
229	0xb8b9d43d	-8.86102e-05
230	0x377a0dfe	1.4904419e-05
231	0xb89d73ba	-7.507899e-05
232	0xb937aa16	-0.00017515602
233	0xb7b657ad	-2.1736918e-05
234	0xb7c4fc94	-2.3482637e-05
235	0x37b2b56a	2.1303731e-05
236	0x3c02796e	0.007963521
237	0x37f4abbb	2.9167035e-05
238	0xb80ed6f2	-3.405562e-05
239	0x37f13432	2.8753744e-05
240	0xb67cc556	-3.766579e-06
241	0xbb796a5a	-0.0038057775
242	0xbc1cbcfa	-0.00956654
243	0xb6972ad6	-4.5051374e-06
244	0xb8cebb5d	-9.8577446e-05
245	0xbcb80226	-0.022461962
246	0xbade1699	-0.001694399
247	0x394bd9fc	0.00019440794
248	0xb8a5edf1	-7.912133e-05
249	0x3819547d	3.655673e-05
250	0xb7aaa7db	-2.0343743e-05
251	0xb8047e0a	-3.1588635e-05
252	0x3b9e720f	0.004835374
253	0xb93a03ab	-0.00017739709
254	0x3bd798a0	0.0065794736
255	0x3c19ac23	0.0093794195

weight f4 [6, 100]
0	0x3e293d7e	0.16527364
1	0x3dffc75a	0.12489195
2	0x3e591c1b	0.21202128
3	0x3e186f09	0.14886107
4	0x3d4a6e95	0.049421865
5	0xbe75b016	-0.23992953
6	0xbe3cd292	-0.18439701
7	0x3ed40adc	0.41414535
8	0xbeb50d1a	-0.35361558
9	0x3c99ad55	0.018759409
10	0x3b7d3a2b	0.0038639407
11	0x3da00031	0.078125365
12	0xbe9082f0	-0.28224897
13	0xbe87a584	-0.26493466
14	0x3db3bce4	0.087762624
15	0xbea36b66	-0.31917876
16	0x3e5c5d5e	0.21519992
17	0x3e875f37	0.2643983
18	0x3e8d5e2c	0.2761091
19	0x3efbda19	0.49189833
20	0xbf22e711	-0.6363383
21	0xbdb0d252	-0.086338654
22	0xbe13955f	-0.1441245
23	0x3c45f90d	0.012083304
24	0x3e7f8ac9	0.24955286
25	0xbf20a9fa	-0.62759364
26	0xbf1772e3	-0.5915968
27	0x3d24dd91	0.040250365
28	0x3abaf1de	0.0014262756
29	0xbd048bae	-0.03235977
30	0xbd9479ab	-0.07249769
31	0x3e177843	0.1479197
32	0xbf0136d1	-0.5047427
33	0x3c3f8773	0.011690008
34	0xbdb7ece5	-0.08980731
35	0x3e16a86f	0.1471269
36	0x3b1c0451	0.0023806284
37	0xbe45b7a2	-0.19308332
38	0xbe0518f3	-0.12997799
39	0xbd9009d7	-0.07033127
40	0xbdeb9d4b	-0.11504611
41	0x3e8b1681	0.27165607
42	0xbeabeff6	-0.33581513
43	0xbe8d60d7	-0.27612945
44	0x3ee88d6a	0.4542039
45	0xbec71362	-0.38881975
46	0xbdd6e4d6	-0.10492866
47	0xbe1a4863	-0.15066676
48	0xbde63b03	-0.11241724
49	0xbd2f2a86	-0.042765163
50	0x3e6ec74b	0.23318212
51	0x3e0ddbff	0.13853453
52	0x3e97cdc8	0.29649186
53	0x3eb739ea	0.35786372
54	0xbe48470b	-0.1955835
55	0xbe5d3055	-0.21600468
56	0x3effaa59	0.49934652
57	0x3ea698be	0.32538408
58	0xbbce4977	-0.006295379
59	0x3e92bb8f	0.2865872
60	0xbe99a58f	-0.30009124
61	0xbdf1e892	-0.118119374
62	0xbe2a348b	-0.16621606
63	0x3eb26a8d	0.34846917
64	0x3c04c566	0.008103704
65	0xbe71bfac	-0.23608273
66	0x3f0db012	0.55346787
67	0xbea67168	-0.32508397
68	0xbeba331b	-0.36367115
69	0xbe0438b6	-0.12912259
70	0x3eaa99ce	0.3332047
71	0xbdfd0e16	-0.12356202
72	0x3ec86cdf	0.39145562
73	0xbe8c3344	-0.27382863
74	0xbc9bf4b3	-0.01903758
75	0xbde86f44	-0.11349347
76	0x3d7d5632	0.06184978
77	0x3edd8d2f	0.43271777
78	0x3e2ef4f4	0.1708563
79	0xbc0d9e36	-0.008643677
80	0xbe71a4f6	-0.23598084
81	0xbd3a7b39	-0.04552767
82	0xbcf7517d	-0.030190224
83	0xbe193e98	-0.14965284
84	0xbcecc7da	-0.02890389
85	0xbda97a80	-0.08275318
86	0xbe2ddeb2	-0.16979483
87	0xbe5ab8e0	-0.21359587
88	0x3e906213	0.28199825
89	0xbe457d2d	-0.19286032
90	0xbe9e99c5	-0.30976692
91	0x3eacfe7a	0.337879
92	0x3ce184b1	0.027529093
93	0xbe5f47a1	-0.21804668
94	0xbe36696a	-0.1781365
95	0xbd11d85c	-0.035606727
96	0x3e9d8d0f	0.30771682
97	0x3b9d7ae7	0.004805911
98	0xbdf1301c	-0.11776754
99	0xbf057779	-0.52135426
100	0xbd6bd3e1	-0.05757511
101	0xbdbe0294	-0.092778355
102	0xbd500caa	-0.050793327
103	0xbe5557e6	-0.20834312
104	0x3e2dd7cb	0.1697685
105	0xbe7ad59e	-0.24495551
106	0x3d512af0	0.05106634
107	0xbdd4b8bf	-0.103868
108	0x3e1fb450	0.15596128
109	0xbe55843c	-0.20851225
110	0xbdcc0fae	-0.09963928
111	0xbe13ad84	-0.1442166
112	0x3e36d742	0.17855552
113	0x3e03ee57	0.12883888
114	0xbeae3431	-0.34024194
115	0x3e5019f3	0.20322399
116	0x3e150c5c	0.14555496
117	0xbeee427e	-0.46535105
118	0xbd3487c9	-0.044074807
119	0xbe743c24	-0.23851067
120	0xbe770205	-0.24121864
121	0x3d7297bd	0.05922674
122	0xbe040ef5	-0.1289633
123	0x3c122671	0.008920298
124	0xbe9f8a2f	-0.31160113
125	0x3ac0e5aa	0.0014716883
126	0xbe48af17	-0.19598041
127	0xbe3f9c4f	-0.18711971
128	0x3e7c5548	0.24641907
129	0xbe915492	-0.28384835
130	0xbe09a312	-0.13441113
131	0xbe1cbdb8	-0.15306747
132	0xbe03ada6	-0.1285921
133	0xbda1c6eb	-0.07899269
134	0xbe92816c	-0.28614366
135	0xbe1fbe9f	-0.1560006
136	0xbe2d79c8	-0.16940987
137	0xbd9940a4	-0.07483032
138	0x3ea67297	0.325093
139	0xbdd34b83	-0.10317137
140	0xbd4d8ecb	-0.050185006
141	0xbe969d2f	-0.29416797
142	0xbe0b1319	-0.13581504
143	0xbe40b722	-0.1881986
144	0xbdfe2d3e	-0.12410973
145	0xbe5b1400	-0.21394348
146	0x3d4dc3d0	0.05023557
147	0x3daada23	0.083423875
148	0xbec5008e	-0.38476986
149	0xbe83b8b3	-0.25726852
150	0xbe6ab047	-0.22918807
151	0x3de474c7	0.11155086
152	0xbd19ad32	-0.037518688
153	0xbc5d920e	-0.013523592
154	0xbd4a4b6f	-0.049388345
155	0x3dee54ef	0.116372935
156	0xbeb2c0ac	-0.34912622
157	0xbd98986d	-0.07450948
158	0x3e4978ff	0.19675063
159	0xbe846195	-0.258557
160	0x3dddecb4	0.10836163
161	0xbde2a6f6	-0.110670015
162	0xbe051d00	-0.12999344
163	0x3d66badf	0.056330558
164	0xbe5c7334	-0.21528322
165	0xbc8e6a7d	-0.017384762
166	0xbe9163f1	-0.28396562
167	0xbe77fc18	-0.2421726
168	0x3d39774c	0.045279786
169	0x3dda8922	0.10670687
170	0xbe02f8a6	-0.12790164
171	0xbda47c05	-0.08031467
172	0xbe938d1f	-0.28818604
173	0xbe2a0883	-0.1660481
174	0x3d74a221	0.05972493
175	0x3de7a91f	0.11311554
176	0x3d2a8afc	0.041636452
177	0x3de3a597	0.11115568
178	0x3c4784ce	0.012177659
179	0x3d9fb295	0.07797734
180	0xbe4992fc	-0.19684976
181	0x3e369b27	0.17832623
182	0xbe21dfb5	-0.15807994
183	0xbe244e70	-0.16045547
184	0x3da3ceb0	0.07998407
185	0xbe2e51ec	-0.17023438
186	0xbe7f0791	-0.2490523
187	0x3df791c0	0.120883465
188	0xbe1cd0e3	-0.15314059
189	0x3e223b6a	0.15842977
190	0xbe066d56	-0.13127646
191	0xbd80e539	-0.06293721
192	0xbdbf8954	-0.09352365
193	0xbe03b879	-0.1286334
194	0xbe8412b4	-0.2579552
195	0xbe337d6a	-0.1752831
196	0xbe82f169	-0.25574806
197	0x3cef004c	0.029174946
198	0xbc485e46	-0.012229508
199	0xbdd6a37f	-0.10480403
200	0xbe347298	-0.17621839
201	0xbe4364b2	-0.19081381
202	0x3e4a5031	0.19757153
203	0x3ca3412c	0.019928537
204	0xbe24f4ee	-0.16109058
205	0x3ddd3872	0.10801782
206	0xbebf8851	-0.3740869
207	0xbe7022f3	-0.23450832
208	0xbe906a09	-0.28205898
209	0xbdc0e71d	-0.09419081
210	0x3ce177c2	0.027522925
211	0x3e8c3302	0.27382666
212	0xbe9884fb	-0.29788956
213	0x3d5ab8a0	0.05339873
214	0xbb10356c	-0.0022004498
215	0xbdb18166	-0.08667259
216	0x3db915c9	0.09037358
217	0x3dbe88b9	0.093034215
218	0x3dff4663	0.12464597
219	0x3e714ddf	0.23564862
220	0x3eb67284	0.35634243
221	0xbedadb16	-0.42745274
222	0xbe86c4e8	-0.26322103
223	0xbe4762ff	-0.19471358
224	0xbb14a124	-0.0022679055
225	0xbe2956d4	-0.16537029
226	0x3de72b4f	0.11287557
227	0xbdbe34c7	-0.0928741
228	0xbec21e0b	-0.37913546
229	0xbd46bfa4	-0.048522606
230	0xbe8b529d	-0.27211466
231	0x3ef8d5d9	0.48600653
232	0xbe8e2575	-0.27762952
233	0xbdf595f2	-0.119914904
234	0x3e4aa2ce	0.19788668
235	0xbdd58f4f	-0.104277246
236	0x3d719bf6	0.058986627
237	0x3db72287	0.089421324
238	0xbebb5778	-0.3659017
239	0xbeb6b29e	-0.3568315
240	0xbed1be7b	-0.40965638
241	0xbe5cfe0f	-0.2158129
242	0x3dace14c	0.084414095
243	0xbe4529d0	-0.19254231
244	0xbecffe77	-0.4062383
245	0xbe5525e6	-0.20815238
246	0x3e38e343	0.18055443
247	0xbc8a8db2	-0.016913269
248	0x3da32780	0.079665184
249	0xbdb0b98d	-0.08629141
250	0x3e390f48	0.18072236
251	0xbda7fc28	-0.08202392
252	0xbe601446	-0.21882734
253	0xbd258164	-0.0404066
254	0xbea6406d	-0.32471028
255	0x3e41eaaa	0.18937173
